Assets/Models/model.onnx (onnx, 8864 bytes, 4 tensors)

StatefulPartitionedCall/sequential_1/dense_1_2/Cast/ReadVariableOp:0 f4 [128, 3]
00000000: 65ec 83be 1951 26be f5f2 f3bb de0e 423c
00000010: 0f30 a5bd af92 d2bd 0f9e ae3d fcd3 7c3d
00000020: 2da8 f9bd f274 c4bd 68bb f63c 300c 3bbe
00000030: b6db 0f3e 24c0 2e3e f69d 39be 5dc4 1bbd
00000040: bbc8 6bbd f684 efbd 4598 183e 7225 15bc
00000050: 55f6 15be 6bbd 283e 086e 683e 4a6d e63d
00000060: e882 3a3e b497 09be 4cd4 0f3d f741 003b
00000070: ef57 303e ec79 413d 8009 173d ddb6 1a3e
00000080: 0812 4b3e cf4c ea3d f136 0b3e 7d44 f23c
00000090: 2da6 27be 8805 12bc cf65 b4bd 8e86 d63c
000000a0: 96e7 573e 274b f9bd f1ac 31bd e446 4ebd
000000b0: d911 013d ba95 a5bd ecf3 21bd 8870 d43c
000000c0: 5d85 333d 5099 d03d 60fa 7cbe 79c2 91bd
000000d0: a276 f23d 74bf 13be a274 103e ab91 5fbe
000000e0: 9a02 08bd 6533 c03a 9314 3cbe 888b 7f3c
000000f0: 9168 39be 2b9a 6abc 910f 633e f90c 81bb
00000100: d8aa 5a3e acd8 223e 8214 38bd ccb8 61bb
00000110: 1267 94bd 7cd8 5cbd fba7 113e 8285 efbd
00000120: 5df8 0b3e 97b6 113e f4bc dcbd ddac 5b3e
00000130: ece2 49bd 0318 04bd f91d 3b3e dfdb 37be
00000140: 39da 823d 8719 973d d07c b5bd c7e1 3e3d
00000150: e20e 4a3d c6d0 163e 608a df3d 5400 13be
00000160: e3d0 f63d 5843 223e dfc4 95bd 274a 06be
00000170: d057 413e a581 4f3e 44f9 2f3e 1cdd b2bc
00000180: ff2b a0bd 7f24 a93d 1cec 303e b3f7 563c
00000190: bf3e e13c 82c0 fabd 8997 52be ace1 8e3c
000001a0: 2f71 573e 65f9 f93d 0691 1f3e 460a 51bd
000001b0: 4cb0 253d 848e 6abd c6e9 e9bd 1856 4d3e
000001c0: f506 30be 509f 48be f759 fc3d 7607 08be
000001d0: f93b edbd c851 53be 7b86 4d3e b6c4 91bd
000001e0: 3db9 e2bd 8d75 583e 63fb 443d f667 be39
000001f0: 68ef 7b3e a277 913d eaa4 90bd 1200 5cbe
00000200: 3d11 1cbd 0ddb c53d 28de d4bd b77a c1bd
00000210: 3b71 b63d 0a4e 943c c0aa 26be f32d 77bd
00000220: 1068 7e3c f64a 273e 6dfd 63bd 7f8b ddbd
00000230: b88f b43c 074b 823c 831b 05be d59f 1d3c
00000240: 4075 a4bd fe7e 8dbb 5245 f8bc 5a95 613d
00000250: a10e afbc 0305 8dbd 95f6 1cbe a208 2f3e
00000260: e445 b03c 194e ae3c 9af3 493c 5792 633e
00000270: e983 40be 5058 1fbe fdf2 323e 0852 543c
00000280: fb12 d6bc 89ee 11be 2dbd fc3d cf06 efbc
00000290: 73d9 3fbe 3c23 d8bd 019d 0f3e 5f5d 06be
000002a0: 85bd 203e 00de 293e 1f99 85be 07b4 2cbe
000002b0: 2029 7a3e e419 5cbe 2c8e 0c3e a59f 2e3d
000002c0: 1bcf 3d3e 7d64 7e3d f6fb 39be 62e7 713e
000002d0: 3cb1 2c3d 6895 ba3d 49b4 bcbd 9b0b 533e
000002e0: ac31 1abd 1fca 023d 66f7 d33d 0ae7 19be
000002f0: 8f42 2c3e c9c5 f23d fe87 acbd 03f1 8a3d
00000300: be09 a83d 40b2 023e 0171 173e c079 54bd
00000310: bae4 a53d 920a 353e a9e3 3e3e efc2 2e3d
00000320: cb9b 61bd eb64 7bbd da4f 5d3e 88cb 92be
00000330: c9f6 90bd 14c8 113e fc50 373e 1ef4 a4bb
00000340: 95b1 f2bd 4a49 023e 3334 fcbd 8e7d bcbd
00000350: fa91 253e 58a1 cebd e977 5a3d 5621 c4bd
00000360: 6862 31bd 8586 b23d 4f5a 013e c6fb 383e
00000370: 2a92 af3d d40c bdbd 7bae 78bd 15dd 083e
00000380: 32e3 4e3e 2099 f93d 4559 283d 535e 503d
00000390: 2cdc 513e 094b cabd 3bba 73bd 4307 183e
000003a0: 2fe8 0e3e 9421 653d 6da3 21be c31b 72be
000003b0: 08db acbd 98ed 323e b828 fe3d fb62 3e3e
000003c0: 6e91 64b9 5881 533d 63e9 0a3e f5c3 a6bd
000003d0: 2d8b 783d f587 f6bc 2f02 9d3d 0843 bb3d
000003e0: dc3e 3a3e f369 dd3c 5998 053d 4edb 2b3d
000003f0: c1c9 233e 3b4c d9bd 39d8 d73d 22b1 093d
-0.25766292 -0.16241874 -0.007444734 0.011844365 -0.08065807 -0.10281884 0.08526241 0.0617256
-0.1219028 -0.09592618 0.03011866 -0.18266368 0.14048657 0.17065483 -0.18126664 -0.038029063
-0.05756448 -0.11695282 0.14901836 -0.009103166 -0.1464475 0.16478507 0.22698224 0.11251314
0.18214 -0.13436776 0.03511457 0.0019570568 0.17221044 0.047235414 0.036874294 0.1510882
0.19831097 0.11440431 0.13595177 0.029573673 -0.16371985 -0.008912452 -0.08808481 0.026187208
0.21084437 -0.12172537 -0.04337782 -0.050360575 0.03151116 -0.08085199 -0.039539263 0.025932565
0.043828357 0.10185492 -0.24704885 -0.07117171 0.11839034 -0.14428502 0.14106992 -0.21832912
-0.033205606 0.0014663754 -0.18367223 0.015597232 -0.18106295 -0.014318983 0.22173907 -0.003938314
0.21354234 0.15902966 -0.044941433 -0.0034442423 -0.072462216 -0.053917393 0.14224236 -0.116953865
0.13668962 0.14229809 -0.107782274 0.21452661 -0.049288675 -0.03224946 0.18273152 -0.17954968
0.06389279 0.07377916 -0.08861697 0.046602037 0.0493306 0.14728078 0.10915065 -0.14355594
0.12051561 0.15846002 -0.07312941 -0.13114224 0.18881154 0.20264299 0.17184931 -0.021833949
-0.078208916 0.08258914 0.17277569 0.0131205795 0.02749574 -0.12243749 -0.20565619 0.017441593
0.2103927 0.12205771 0.15582666 -0.05103519 0.040451333 -0.05726482 -0.11421542 0.20052373
-0.17190154 -0.19592023 0.12321847 -0.13284096 -0.115837045 -0.20636666 0.20070831 -0.07117598
-0.11070488 0.21138592 0.048091304 0.0003631708 0.24603045 0.07102896 -0.07062705 -0.21484402
-0.038102377 0.09660921 -0.103939354 -0.09447234 0.08908316 0.018103618 -0.16276073 -0.060346555
0.01552774 0.16337189 -0.055661608 -0.108176224 0.022041187 0.015904916 -0.12998776 0.009620626
-0.08030176 -0.004318117 -0.030306492 0.055074073 -0.02136928 -0.068857215 -0.15328439 0.17093137
0.021517701 0.021277474 0.012326146 0.22223793 -0.1880032 -0.15561032 0.17475505 0.012959011
-0.026132097 -0.1425115 0.1234077 -0.029178051 -0.18735294 -0.105535954 0.14024736 -0.13121556
0.15697296 0.16588593 -0.26093385 -0.1686555 0.2442975 -0.21494251 0.1372611 0.042632718
0.18536036 0.06210755 -0.18162522 0.23623422 0.04216121 0.09110528 -0.09214074 0.20609896
-0.037645027 0.03193104 0.10349922 -0.1502954 0.16822265 0.11854131 -0.08424376 0.067842506
0.08204983 0.1276331 0.14789201 -0.051873922 0.08100267 0.17679814 0.18641533 0.042666372
-0.055080216 -0.06137554 0.21612492 -0.28670907 -0.070783205 0.1423648 0.17901987 -0.005033984
-0.11850277 0.1272327 -0.12314644 -0.09203635 0.16168967 -0.10089368 0.05333701 -0.09576671
-0.04330674 0.08717064 0.12632106 0.18064794 0.085728005 -0.092309624 -0.060713273 0.13365586
0.20203856 0.121874094 0.04110076 0.050871205 0.20494145 -0.09877593 -0.059503775 0.1484652
0.13955759 0.055940226 -0.15784998 -0.23643403 -0.084402144 0.17473447 0.1241011 0.18592446
-0.00021797951 0.051637024 0.13565592 -0.081428446 0.060679603 -0.030094126 0.07666432 0.091436446
0.18188041 0.02702806 0.032615993 0.041957192 0.15994932 -0.10610243 0.10539288 0.033616193

StatefulPartitionedCall/sequential_1/dense_1_2/Add/ReadVariableOp:0 f4 [3]
00000000: 8fe1 baba 9b4f 0bbb 3734 9d3b
-0.0014257896 -0.0021257165 0.0047974843

StatefulPartitionedCall/sequential_1/dense_1/Cast/ReadVariableOp:0 f4 [10, 128]
00000000: a7cf 663e 9c19 5cbe a2c8 433e 2817 ca3b
00000010: cc74 953d 31de 943d b3f1 3e3e 44ed 9dbd
00000020: 3baa 22be f08a 66bd 5850 17be 76c6 16be
00000030: e1ff 243e c0b3 24bd af5e 2b3e 1eb5 8abd
00000040: 30fa 35be 69fa e33d dece 323e ccc6 f6bc
00000050: 54d0 d03d a45c 1dbe 3cb3 253d 7bf0 54be
00000060: e413 383d f6d8 47be 8c97 27be 7607 1e3d
00000070: 0137 a43d 69a0 ab3d 4fa7 4d3e 3ca5 7abd
00000080: cafd 0ebe 9f58 1a3e acc3 2ebe cfd4 f33d
00000090: 6c32 51bd 5cfe 373d 56ac df3d 5cd0 36bd
000000a0: a653 493e 2aae 193d 4020 383c 0bd9 0abd
000000b0: 95e9 a83d 22b0 643e fde6 febd dd04 0c3c
000000c0: 3ecf 00be f622 f5bd bc51 56be 06ea 503c
000000d0: 6e6f b9bd 48a9 313d ba30 953c 0e68 9bbc
000000e0: c575 7b3d 442d 71bc 2412 15be eff5 8fbd
000000f0: 3fba 0b3c 6b30 2fbd 6280 e8bd fe35 85bc
00000100: c9e2 15bd 3379 213e 8666 b2bd 33ac 0e3c
00000110: 40aa b23d 796c 513e 753f 61bd 3757 283e
00000120: cd6f 2cbe 1964 323e e6d8 c23d c398 c83d
00000130: 4073 f2bd c078 91bd f84e 8b3d 9697 6e3d
00000140: 03c2 203d bfb6 07bc 2964 533e 1429 aa3d
00000150: 23fe 493c d9b6 853d d552 b7bd 51cf ea3d
00000160: e203 843d b08e d2bd db2a c7bd 33d4 8d3c
00000170: 618a 34be 7335 353d f291 f5bd ede2 1abe
00000180: b47d 173e b9be 653e 8bfb 4c3e 5591 223e
00000190: 2084 1d3d 3a4a 053e 886d 453d ba5d cd3d
000001a0: 0335 c6bd 752b 1cbe 06c6 a4bd 4ae9 0d3e
000001b0: f6a5 afbd 6464 603d 08ac 04be 1d47 353e
000001c0: e6a3 2abe 695d 1e3e 0ba5 5cbd d0d4 89bc
000001d0: 644b 5e3e 0ad2 60bd 0e0c 95bd 31a3 623e
000001e0: c969 3fbe 9ece dcbb 1159 ac3c e9ea f03d
000001f0: fb1f b03c 8d6c 25bd 3a5d 563e 786b f43d
00000200: 44b5 a9bc 4de3 ddbd 3f8c 323d 6ad5 2b3e
00000210: 402d 493d cb9f 0abe 8192 5a3e cbdf 353e
00000220: daba 58be 127c 4fbd 93d1 0c3e c8d4 033d
00000230: 2af3 64bd e7ce 443e 210d 0a3e 6daf d1bd
00000240: 024c bebb 9c4a 0cbe ab60 04bd 56f7 e4bd
00000250: 8e2d bfbc 3905 02be 3646 9cbd bf21 133e
00000260: 30b3 38be 10d0 2cbe 43f3 e0bd 4fb1 f43d
00000270: dac9 613d fae7 ebbd d860 f03c 1139 eb3d
00000280: f630 15bd 7692 90bd 6f8b 10be 4e31 f3bd
00000290: 943e 6d3d 82d9 483e 800b dcbc 63f1 05be
000002a0: 8fe9 b1bd 4805 453e 6870 f33d 089a 3b3e
000002b0: 4083 6c3d 34fc 403e 1757 b93c 8614 b73d
000002c0: 3cc3 13be d27a de3d 808b 06be 29ee a9bd
000002d0: 6b3b 2abe fdc0 aebd 8eea 08be a56d e9bd
000002e0: 2f6b 2b3e d1de d63d 79b1 413c 7e5a 0abe
000002f0: 2372 03bd 3a84 753b 8579 273d 6504 05be
00000300: 3baf 8cbd ce0a 113d b0b0 d43d c8a0 363e
00000310: b1ab fe3d 4972 40be a59e 0e3e 4a49 143e
00000320: a105 b33d 4dbc b83d 0a0c cd3c 7f60 99bd
00000330: f58b 36be 9088 45be 70e4 353e 7b36 b0bd
00000340: bd83 4bbe aef2 3fbe e638 6cbe 5b4d 2ebe
00000350: 8141 03be 0027 c4bd b059 16be 2974 0f3d
00000360: 541f 80be 96f9 d2ba 94ec 02be efc4 71be
00000370: 653e 1dbe b453 26be 6344 fcbd fc8a d9bd
00000380: ac31 453d 5cd1 9bbd 6c25 8d3d e6c2 413e
00000390: 3861 e13d a01b 24be 5923 443e a5a1 04be
000003a0: 5e55 973c abd5 073e 5093 9f3d 0280 893e
000003b0: a70f e83d d519 f7bd 7e9a 35be 7093 593d
000003c0: 3f3f 39be c2e9 ea3d 6a42 1c3e acc5 51be
000003d0: 2c59 26be 16f9 12bd 9c18 47be 954e 95bd
000003e0: 89ce 363e 52ac 1e3d fb8d ae3d a943 4b3d
000003f0: b735 2dbe f881 0a3e 005c fc3c de45 9c3c
0.2254015 -0.21494144 0.19119504 0.006167311 0.07297668 0.07268942 0.18646888 -0.077112705
-0.1588525 -0.056284845 -0.14776742 -0.14724144 0.16113235 -0.040210485 0.16735338 -0.067728266
-0.1777122 0.11131746 0.17461726 -0.03012409 0.101959854 -0.15367371 0.040454134 -0.20794861
0.044940844 -0.19516358 -0.16366404 0.038581334 0.08018304 0.08380205 0.20083354 -0.061192736
-0.13964 0.15072869 -0.1706683 0.119058244 -0.051073477 0.04492031 0.10921542 -0.0446323
0.19660816 0.03751961 0.011238158 -0.033898395 0.08247677 0.22332814 -0.12446401 0.008546081
-0.12579057 -0.11969559 -0.20929617 0.012751108 -0.09054457 0.04337433 0.018211711 -0.018970516
0.06139161 -0.014720265 -0.14557701 -0.0702933 0.008528291 -0.042770784 -0.11352612 -0.016261097
-0.036593232 0.1576889 -0.08710961 0.008708048 0.08723879 0.20451535 -0.054992158 0.1643952
-0.16839524 0.17420997 0.09514026 0.09794762 -0.118383884 -0.07103109 0.068021715 0.058250032
0.039247524 -0.008283316 0.20643677 0.08308616 0.012328657 0.06529016 -0.08951346 0.11465324
0.06446053 -0.10281122 -0.09724971 0.017313099 -0.17630912 0.044240426 -0.119907275 -0.15125628
0.14794046 0.22436036 0.20017831 0.15875752 0.038456082 0.13016596 0.04820016 0.100276425
-0.0967808 -0.15250953 -0.080455825 0.13858524 -0.085765764 0.05478324 -0.1295625 0.17702909
-0.16664085 0.1546532 -0.053868335 -0.01682511 0.21708447 -0.05488781 -0.0727769 0.22132565
-0.18692698 -0.006738498 0.021038564 0.117635556 0.021499624 -0.040386725 0.20934 0.119345605
-0.020716317 -0.1083437 0.04359078 0.1678063 0.04911542 -0.13537519 0.2134495 0.17761151
-0.21165028 -0.050655432 0.13751821 0.032185346 -0.05589596 0.19219552 0.13481571 -0.10238538
-0.0058074007 -0.13700336 -0.032318752 -0.11179988 -0.023337152 -0.12697305 -0.07630579 0.14368342
-0.18037105 -0.16876245 -0.109838985 0.119478814 0.05512414 -0.115188554 0.029343054 0.11485494
-0.036423646 -0.07059185 -0.1411569 -0.118746385 0.057921007 0.19614223 -0.026860952 -0.13080363
-0.08687126 0.19240296 0.11886674 0.18320477 0.057742357 0.18846208 0.022624535 0.089394614
-0.14429945 0.1086327 -0.13139153 -0.082973786 -0.16624229 -0.08532903 -0.13370726 -0.11397866
0.16740106 0.104917176 0.011822098 -0.13511083 -0.03209127 0.0037462846 0.040887374 -0.12989958
-0.0686936 0.035410695 0.10385263 0.1783477 0.12435091 -0.18793596 0.13927706 0.14481083
0.08741308 0.090202905 0.025030155 -0.07489108 -0.17826827 -0.19290376 0.17762923 -0.08604141
-0.19874473 -0.18744919 -0.2306858 -0.17021696 -0.12817957 -0.09577751 -0.1468265 0.03502289
-0.250239 -0.0016096111 -0.1278556 -0.2361028 -0.15355833 -0.16242868 -0.12317731 -0.10622212
0.048143074 -0.076082915 0.06891903 0.18922004 0.11004871 -0.16026163 0.19154109 -0.12952287
0.018473323 0.13265102 0.077917695 0.26855475 0.113311104 -0.12065474 -0.17734715 0.053119123
-0.18090533 0.11470367 0.1525971 -0.20485562 -0.16244954 -0.035882078 -0.19442981 -0.07290379
0.17852224 0.038738556 0.085231744 0.049625073 -0.16915022 0.13526142 0.030805588 0.019076284

StatefulPartitionedCall/sequential_1/dense_1/Add/ReadVariableOp:0 f4 [128]
00000000: 81cf c33b c9e2 553b c642 443a 6aae e7bc
00000010: ea53 cabb 95d5 d7bc 4fa8 743b 883d 873c
00000020: c144 483c ee99 96bc cf28 74bc 427c 063d
00000030: 0113 873c 43c4 ea3b 9bc4 b43c 0000 0000
00000040: 1ef6 603c 5ab1 16bd 5e03 c43b b5b7 033d
00000050: 49d0 4b3c fab9 553c 6a03 52bb 0000 0000
00000060: b912 96bc 655b 54bb 6ddf 033b 79db 9abb
00000070: e72f f13b 9b26 19bc 6b17 863b 9bc5 bd3a
00000080: 27a2 bebb fb07 d4bb ae1b 2fbb 7d60 b13b
00000090: 0000 0000 1366 e9ba e8dd 30bc 867b 20bc
000000a0: 0ca5 7abb 48d0 c83c 505b 7c3c 586b d6bb
000000b0: cc05 85bb 734f 273c 7e60 2ebc 981b 973c
000000c0: 9986 5bbc be3d e23b d34f babc 306d 723b
000000d0: e4e2 d4bc 13a6 96ba a4f8 2fba fb06 adbc
000000e0: 2bd6 6e3c ca5d 903c 3bd9 92bc a268 553c
000000f0: b6ad e0bb 9862 b03b 8c16 ce3b f067 be3b
00000100: d73c 9cbb 97f0 bd3a 37fa 023c 1eef f7ba
00000110: a82c 1e3b f182 1abb b0b5 4f3b 0064 a937
00000120: 3ee5 c7bb b299 02bc 6635 dbb8 e27c 9cbc
00000130: ca13 19bc 0000 0000 39aa 593c fca7 13bc
00000140: 23db 09bb 6b8b 0abd aa89 83bb ecab a8bc
00000150: 3631 5b3d 0523 e7bb 0000 0000 86b1 8bbb
00000160: 470d 66bb de42 1a3d 0000 0000 b829 c7ba
00000170: c7dc 1cbd cfc7 e9bc 20ff 95bb a3f2 083c
00000180: 960e 8bbc 9465 8f3c 5d26 df3c e6a5 d4bc
00000190: 64fd 263b 3398 2bbc 5b81 ee3b 0277 16bc
000001a0: daf4 f8bc c15a 5b3b 217e adbc 38cc 643d
000001b0: 9ab0 073c de57 42bc 118b 1ebc eff9 aa39
000001c0: 4702 0b3b d672 94bc a334 3cbc 0000 0000
000001d0: 68f7 4c3c 2636 1abc 0000 0000 0d23 e8bb
000001e0: 391e 3abb 4cbb 2c3d cad4 433c d151 77bb
000001f0: 00af 143d c34b 673c 064e 85bb 0468 d2bc
0.005975664 0.0032636395 0.00074867567 -0.02828141 -0.006174554 -0.026346961 0.0037331765 0.016508833
0.012223423 -0.018383946 -0.014902308 0.032833345 0.016488554 0.0071645095 0.022066405 0.0
0.013730554 -0.03679023 0.0059818467 0.03215762 0.012439796 0.013044829 -0.0032045492 0.0
-0.018319475 -0.0032403108 0.0020122186 -0.00472587 0.0073604467 -0.009347583 0.004092147 0.0014478447
-0.00581767 -0.006470678 -0.002671938 0.0054131136 0.0 -0.001780691 -0.010795094 -0.009795075
-0.0038245348 0.024513379 0.01540263 -0.006543558 -0.004059529 0.010211813 -0.010643123 0.018445775
-0.01339879 0.006904333 -0.022743141 0.003699135 -0.025987096 -0.0011493586 -0.00067127706 -0.021121493
0.014577429 0.017622847 -0.01792585 0.013025435 -0.0068566455 0.005382847 0.006289309 0.00581073
-0.004767995 0.0014491257 0.007994226 -0.0018915867 0.0024135504 -0.0023576582 0.0031693988 2.0192936e-05
-0.006100326 -0.007971214 -0.0001045268 -0.019102518 -0.009343097 0.0 0.013285213 -0.009012219
-0.0021035157 -0.033824366 -0.0040142136 -0.020589791 0.053513728 -0.007053735 0.0 -0.004263106
-0.0035103129 0.037661426 0.0 -0.0015194928 -0.038296487 -0.028537659 -0.0045775324 0.00835863
-0.016974729 0.01750449 0.027239973 -0.025958013 0.0025480622 -0.010473299 0.007278604 -0.009183647
-0.030390192 0.0033470842 -0.021178307 0.05585882 0.008281851 -0.0118617695 -0.009676711 0.00032611142
0.0021211074 -0.018121164 -0.011487159 0.0 0.012510158 -0.009412324 0.0 -0.0070842565
-0.0028399362 0.042170808 0.011952588 -0.0037737975 0.036299706 0.014117184 -0.004068139 -0.025684364
